pose_est/checkpoint/pretrained/refine_4365.pth (torch, 563219 bytes, 4 tensors)

post_refine.0.weight f4 [1024, 102]
000000 6a a9 29 bd 98 97 64 bb 60 4a 67 bc 06 94 60 bc
       -0.04142133 -0.0034880396 -0.0141168535 -0.013707167
000010 78 c1 cc bc eb 11 35 bd 1a ad 80 bd 05 1e 92 bd
       -0.024994597 -0.04420654 -0.062830165 -0.07134632
000020 90 4a a6 bc d8 4c 4a bd 37 0c 4a bd a3 ce fe bb
       -0.020299226 -0.04938969 -0.049328055 -0.007776098
000030 ae 7e 54 bd be a7 33 3c a0 fc 90 3d 6a 1c 8b 3d
       -0.051878624 0.010965286 0.070794344 0.06792529
000040 09 00 a2 3c 05 2d 12 3c 32 55 9d 3d 64 e5 20 bd
       0.019775407 0.008921866 0.07682265 -0.039281264
000050 78 0a 2c 3d 68 61 f6 bb 36 dd b8 3d a7 ab 96 bc
       0.04200217 -0.007518936 0.09026568 -0.018392397
000060 2e 91 80 3c 51 fa 16 bb c5 c0 53 bd 68 d4 84 3d
       0.015694227 -0.0023037384 -0.05169751 0.06485826
000070 8e be 03 be fb 15 2d ba 0d 44 06 3d 40 9a 8d 3d
       -0.1286566 -0.00066027016 0.032779742 0.069141865
000080 40 b2 88 bc 73 5e 41 3d e1 9f ab 3d 85 30 dd bc
       -0.016686559 0.047209214 0.08380104 -0.027000675
000090 83 ab 09 bc ab 2d 26 3d 83 9c 42 3d 6e 40 f7 3c
       -0.008402708 0.040570896 0.047512542 0.03018209
0000a0 42 1d 3c bd 72 18 c1 3d e7 31 16 3d cd 0b 21 bd
       -0.04592634 0.09428491 0.036668684 -0.039317895
0000b0 49 98 b3 bc de b6 39 bd 12 8e 26 3c 6f 04 bb 3d
       -0.021923201 -0.04534041 0.010165708 0.09131705
0000c0 e0 48 e5 bd 69 2f 6c bd 89 1e 8a bc ca 84 c7 bd
       -0.111955404 -0.0576624 -0.016860263 -0.097421244
0000d0 90 94 99 bd a2 08 e8 3d d5 23 eb ba 86 e8 d3 bd
       -0.07499039 0.113297716 -0.0017939756 -0.10347085
0000e0 ce a2 17 3d 90 c2 d8 bc 75 38 12 bd 88 e6 ee bb
       0.037020497 -0.026459962 -0.035698373 -0.007290665
0000f0 5b 94 8c 3d bb f5 47 3d f7 3a a0 bd 07 ce 87 3d
       0.06864234 0.04881833 -0.07823747 0.066310935
000100 03 79 a3 3d 23 c3 91 bd ab 6b 3f bd 83 48 9d 3d
       0.079820655 -0.071172975 -0.04673354 0.07679846
000110 2d f8 a5 bd 5a fa d1 3c 5e d7 0d 3d d7 cc b6 3c
       -0.081039764 0.025632072 0.03462922 0.022314472
000120 d7 f7 3f bc 8e 40 10 3d fe 87 b4 bd b5 c3 0c be
       -0.0117168045 0.035217814 -0.08815001 -0.13746531
000130 81 c6 b9 3d 51 c9 d5 bc 95 17 6e 3d b7 ec 6b 3e
       0.09071065 -0.026096972 0.05812796 0.23039518
000140 c4 22 82 bd 14 1c a8 3d fc d4 7b 3e f6 6e 45 3d
       -0.06354287 0.082084805 0.24592966 0.048201524
000150 6b 7b 92 3c 76 be 3a bc e8 9f dc bc 93 c4 6a bd
       0.017881116 -0.0113979485 -0.026931718 -0.057316374
000160 40 4a 0a 3d ee 62 17 3d 2f 6a 74 3d a8 a3 c3 bd
       0.033762217 0.03695958 0.059671577 -0.09552699
000170 22 1a b3 3d 38 de 95 bd ef 84 9a 3d 00 ad 0c bd
       0.08745219 -0.073177755 0.07544886 -0.034344673
000180 8d 61 13 3c 7e 66 bc bb b2 75 4f bd 70 c1 db 3d
       0.008995426 -0.0057495227 -0.050649352 0.10730255
000190 d9 8f 29 3d 67 a7 28 3c 72 f3 98 3d 6f 61 87 3c
       0.04139695 0.010293818 0.074683085 0.016525952
0001a0 0b 1e 39 bc 59 dd 9d 3d cc 32 3d bc 9e ef 75 3c
       -0.011298667 0.07708234 -0.011547755 0.0150107425
0001b0 49 6b 92 bd 88 1a 63 3c bf 79 52 3d 42 97 c7 3d
       -0.07149369 0.013861306 0.051385637 0.09745647
0001c0 64 4d fd bd 22 8c a2 3d bb 2b 9e bd 16 0c a0 3d
       -0.12368277 0.079368845 -0.07723185 0.07814805
0001d0 52 2a f7 3d 85 e1 a3 3c 11 a9 9b 3d e6 af d1 3c
       0.12068619 0.020004997 0.07600606 0.02559657
0001e0 a7 51 e5 bd 47 77 fa bc 82 52 5f 3c f1 b9 1e bb
       -0.111972146 -0.030574454 0.013630511 -0.0024219716
0001f0 12 e5 9e 3d c7 ab 9a 3d 55 07 96 3c 31 a4 90 3b
       0.077585354 0.07552295 0.018314043 0.0044141044
000200 e4 89 07 bd 27 30 d6 bd 4c c9 92 bd 6d d5 c0 bd
       -0.033090487 -0.10458403 -0.071673006 -0.09415708
000210 65 9c 12 3d 25 d1 b6 3d 4c ee de 3d b9 28 18 be
       0.03579368 0.0892661 0.10885295 -0.14859284
000220 08 0d 5a 3c 0d 61 c1 3d 09 8e 81 bd c8 62 df 3c
       0.013308771 0.09442339 -0.06325919 0.027268782
000230 6f 61 4a bd d5 35 dd bd 39 18 d7 bd 01 b0 a7 bd
       -0.049409326 -0.10801283 -0.10502667 -0.08187867
000240 df 38 17 3d bf b1 23 3d 74 f0 61 3d ee 8d 13 bd
       0.03691947 0.039964434 0.055160955 -0.036024027
000250 98 84 06 bd 97 e3 ca 3c 5e e1 b8 3c 6d 86 a3 bc
       -0.032841295 0.024766726 0.022568401 -0.01996156
000260 8a 23 92 3d e6 16 01 3e 4e 44 ca 3d 6b d6 9e 3c
       0.07135685 0.12606391 0.09876309 0.019389352
000270 c8 a6 6c 3c bb 4c a7 3b 71 24 30 3d 92 6b 28 bd
       0.014444061 0.0051055825 0.043003503 -0.041118212
000280 f1 5b 9b 3d 63 1d 07 bd e3 9f 75 3c 0b 9f be 3d
       0.07585896 -0.03298701 0.014991733 0.09307679
000290 82 50 af bd 91 dd b6 3d 85 32 99 bd 77 d6 d1 bc
       -0.085602775 0.08928979 -0.07480339 -0.02561496
0002a0 c4 d1 7a 3b f3 03 ba 3b 29 4c 8e 3d 0b c2 99 3d
       0.0038272003 0.0056767403 0.0694812 0.07507714
0002b0 0d 77 4b bd 76 97 a3 3d 0c ed 1c bd 62 fa 09 bd
       -0.049674083 0.07987873 -0.038312003 -0.03368605
0002c0 64 8b cd 3d f7 15 85 3d d8 d6 fe 3c 5e 53 a1 3d
       0.10036352 0.0649833 0.031108305 0.07877229
0002d0 15 6a 1e 3d a9 23 c5 bc 78 56 2f bd 58 e2 e0 bc
       0.038675386 -0.024064856 -0.042807072 -0.02745168
0002e0 78 f5 85 bd 38 7d 94 bd 1b d7 4f 3d 40 f3 51 3d
       -0.0654096 -0.07250446 0.05074225 0.051257372
0002f0 27 ee fa bc 2a 1d b4 3d e6 e5 9d 3d c1 4d 27 bd
       -0.030631138 0.08794625 0.07709865 -0.040845636
000300 3e af 3d 3e 5a 50 13 bd e3 c8 03 bd 2e ab 50 3e
       0.18523881 -0.0359653 -0.032174002 0.203778
000310 33 de e5 3c 58 e3 aa bc 30 32 bf 3d 19 a6 5d 3d
       0.028060054 -0.02086036 0.093357444 0.05411348
000320 b0 a7 13 bd c4 93 50 3e cd aa c5 3c 23 41 44 bd
       -0.03604859 0.20368868 0.024129296 -0.04791368
000330 3a ab ca 3c ec 4b c0 3c 82 27 20 3d 1c 87 50 3c
       0.02473985 0.023473702 0.039100178 0.012727525
000340 16 25 c7 bd 6c ba a9 3d c4 cc 0e bd af 13 3f 3d
       -0.097238705 0.0828751 -0.03486325 0.04664963
000350 93 21 da bd 16 5a 13 bc b3 1a c8 bd 2c e5 42 3d
       -0.10650935 -0.008993646 -0.097707175 0.047581837
000360 6b 1f cb bd 52 75 d0 3d 48 e3 94 bd 0f 22 14 be
       -0.09918102 0.10178627 -0.07269913 -0.14466117
000370 c3 8e 76 bd 5d 0e 7d 3d 9f 11 28 bc d4 f1 0d 3d
       -0.060194742 0.061781276 -0.010258107 0.034654453
000380 86 45 57 bc 6a 1a cf bd 3e 2a 85 bd ff 3f 9e bc
       -0.013139134 -0.1011246 -0.06502198 -0.019317625
000390 30 69 c9 3d 43 d7 0a 3d a5 21 be 3b d4 ac 52 bb
       0.09834516 0.033896696 0.0058023506 -0.003214647
0003a0 a7 87 7d bc 13 1a 93 bd 11 4e 1d 3c 27 6a 8e bd
       -0.015474237 -0.07182708 0.009601132 -0.06953841
0003b0 e3 f9 90 3d 62 26 53 bd 84 2b 2a bd 78 8f fc bb
       0.07078912 -0.051550277 -0.041545406 -0.0077075325
0003c0 11 12 8c 3c 0f 96 10 3d 3c 26 d0 3c f8 0e 64 3d
       0.017098458 0.035299357 0.025408857 0.055678338
0003d0 14 43 ba bd f7 59 47 bb f6 86 1b bd 8a 93 86 3d
       -0.090948254 -0.0030418613 -0.037970506 0.065711096
0003e0 0d 75 64 3b 0d cd fa 3b 32 9e bc bd 46 5c 80 3d
       0.0034859807 0.0076538385 -0.09209861 0.062676
0003f0 ec 1c 3f 3d 24 e7 cf bd d6 63 5b 3c e6 89 49 bc
       0.04665844 -0.101515085 0.013390502 -0.012300944

post_refine.0.bias f4 [1024]
000000 49 c1 a8 3c c2 7f b2 3c 9b 96 85 3b 2e 31 78 3d
       0.020599978 0.021789435 0.0040767915 0.060593776
000010 71 d8 ae bd 39 08 2a bd be 4d 07 3d fa 7d 99 bd
       -0.08537377 -0.041511748 0.033033125 -0.07494731
000020 90 be d5 bd 82 56 a7 3d 7d 1d 52 ba 71 fb 66 bd
       -0.104367375 0.08170797 -0.00080152584 -0.056392137
000030 e7 69 90 3d 1f 1f b8 3c 76 1e 85 bc 4a 9e a0 3d
       0.07051449 0.022475777 -0.016249876 0.07842691
000040 46 f5 49 bc dd 68 ba bd 87 07 46 bd 82 e4 c3 3d
       -0.012326544 -0.09102032 -0.048347022 0.09565069
000050 db 17 dc bc 22 89 7b bd 5c 36 46 bc dc 79 57 bd
       -0.026866844 -0.061410077 -0.012097921 -0.05260645
000060 32 b0 b6 3d 97 46 5e 3d 08 cd ca bc 03 b1 5e 3d
       0.08920325 0.05426654 -0.02475597 0.05436803
000070 20 7f c9 3c 68 fc ec 3d cc a8 24 bd 21 3f 4c bd
       0.02459675 0.1157158 -0.04020004 -0.049864892
000080 78 c6 ec 3c 30 b3 a5 bd d2 6a 9a 3d b1 85 43 bd
       0.028903231 -0.08090818 0.075399056 -0.04773492
000090 da c0 6e 3d 00 86 9c 3c 5f a6 90 bb fb 90 8d 3d
       0.058289386 0.019106865 -0.004414364 0.069124185
0000a0 b9 2b 97 3d f2 d8 c3 bd 9b 60 3b bd 79 ed 5b bd
       0.07381386 -0.095628634 -0.045746427 -0.05369327
0000b0 60 15 b5 3d f5 79 89 3d b0 8e 2d 3c fc d8 97 bc
       0.088419676 0.067127146 0.010593101 -0.018536083
0000c0 d7 d1 c8 3d f2 36 c3 3a 02 8a 7c 3d f9 f0 c4 3c
       0.09805649 0.0014893694 0.061655052 0.024040686
0000d0 9b 45 47 3d e3 a1 a1 bd 1a cc 9e 3c 42 8d 77 bd
       0.048650365 -0.078922056 0.019384433 -0.06043745
0000e0 7c 98 3d bd 69 29 9b 3c 90 49 2d 3d 13 c2 24 bd
       -0.046288 0.018940644 0.042306483 -0.040224146
0000f0 14 e6 a9 bd a7 f2 86 3d 35 58 4c bd bd 1c 47 bd
       -0.08295837 0.06589251 -0.04988881 -0.04861139
000100 c6 3e 19 3d b5 a7 80 3d 24 02 10 3d 92 97 3c 3c
       0.03741338 0.062819876 0.03515829 0.011510747
000110 65 6a e1 3d bf 5a 03 bc 7d 4a b3 bd aa 7c 0b 3d
       0.11006621 -0.008017241 -0.08754442 0.034054436
000120 86 f0 4d bd 71 ad 6e bd af 2e e2 3c f7 22 b3 3c
       -0.05027821 -0.058270875 0.027610151 0.021867258
000130 ad ed 1a bc a6 56 89 3d 12 b8 1a bd 9b d9 0c bb
       -0.00945608 0.0670598 -0.0377732 -0.0021492008
000140 e4 33 22 3d 31 20 6e 3c b3 e5 12 3c 82 65 27 bb
       0.039600268 0.014534042 0.008965897 -0.002554268
000150 0b 41 51 bd 59 f0 9c 3d 87 5b 86 3d 6f f3 8c 3b
       -0.05108742 0.0766303 0.06560426 0.0043014805
000160 c6 18 8e 3d 4f 8d 74 bd 59 09 3e 3d 5d 8c 9e 3d
       0.06938319 -0.059705075 0.046395633 0.07741616
000170 90 02 38 bc 60 bd 60 bd 5b 1a 41 bc 7c 66 18 bc
       -0.01123108 -0.054868102 -0.011786069 -0.009301778
000180 d7 8f 6c bc 5b 74 4c 3c 09 a3 9a 3c 51 c1 9f bb
       -0.014438591 0.012478913 0.01887657 -0.00487534
000190 27 96 a5 3d 8b cb 5f 3d fc e1 b7 bd 5e 40 ed 3b
       0.0808528 0.054637473 -0.0897865 0.007240339
0001a0 f7 b0 a0 bd 91 c9 cf bc 93 84 85 bb ea 56 34 3d
       -0.07846253 -0.025364669 -0.004074642 0.0440282
0001b0 65 8a 1b bd 6c 7a 73 bd f1 ab 88 bd f2 83 6d bc
       -0.03797378 -0.059442922 -0.0667342 -0.01449679
0001c0 52 1f 3f 3d e9 db 83 3d 00 2f f1 bc 84 57 79 3c
       0.04666073 0.06438429 -0.029441357 0.015218619
0001d0 c3 d5 87 3d 1b e4 89 bd 9d 65 ee bb 1a 58 ba 3c
       0.06632569 -0.06732961 -0.007275297 0.022747088
0001e0 9f e7 99 3d 49 f9 66 3d 85 a5 58 bd 1b 4f cb bc
       0.07514881 0.05639008 -0.052892227 -0.024817994
0001f0 61 9b 55 3d 15 ee 3e 3d 60 c8 8b bd 2c d9 f4 3c
       0.052150134 0.04661377 -0.06825328 0.029888712
000200 30 a6 d2 bc 02 ea 9f bb 44 ed df 3b 37 88 08 3d
       -0.02571401 -0.004880191 0.006833704 0.03333303
000210 fc 09 72 3d 46 a7 56 3d ab ff 87 3d 48 bd 08 bb
       0.059091553 0.052405618 0.06640562 -0.0020864774
000220 80 cf 56 3d 4d 06 a9 3d 8f 64 67 bd 74 5f e0 b8
       0.05244398 0.08253155 -0.056492385 -0.00010698932
000230 c5 df 6b bd bf 0c a0 3d 9e 39 ac bd 22 36 b8 bd
       -0.05758645 0.07814931 -0.08409427 -0.089947
000240 c5 90 42 bd b7 01 89 bd 43 ba 01 3d f5 a4 86 bc
       -0.047501344 -0.0668978 0.031671774 -0.01643608
000250 69 5e 90 3c 8a 6e 9f 3d c2 1e a5 3d 15 5a 9c bd
       0.017623143 0.077847555 0.08062507 -0.07634369
000260 50 32 52 3d 06 05 52 3d c1 21 9a 3c 9c 80 d4 3d
       0.051317513 0.051274322 0.018814923 0.10376093
000270 9e 66 11 3d c5 74 8f 3c 07 63 90 3d f8 01 a0 3d
       0.035498254 0.017511735 0.07050138 0.078128755
000280 1d 4f be 3d c1 d8 b9 3c 04 e7 8d 3d af ed c9 3b
       0.092924334 0.022686364 0.06928828 0.0061623673
000290 e8 e4 7a 3d 63 58 dc bc d2 33 e5 3c 85 69 1e 3d
       0.06125346 -0.026897615 0.027978811 0.03867485
0002a0 55 27 a3 3d 3f a7 d1 bd 73 64 57 bd 79 50 67 3d
       0.07966486 -0.10236978 -0.05258603 0.05647323
0002b0 b6 81 8e 3b f7 c7 80 bc c4 a1 28 bd 76 94 00 3a
       0.004348959 -0.01572035 -0.041169897 0.0004904935
0002c0 73 6a 2e bc 3f ce 91 bd 1a 1d 77 bd 1a b5 88 3d
       -0.010645497 -0.071194164 -0.060330488 0.066751674
0002d0 fb d6 81 3d d0 65 a4 3d aa 5e da 3a 20 6e da 3a
       0.063398324 0.08027232 0.0016660292 0.00166649
0002e0 74 68 bb bc eb a1 7f bd ac fd b4 bc d7 04 ad bd
       -0.022876956 -0.062410276 -0.022093616 -0.08448189
0002f0 d1 da 4f bd ba e7 9c bc e6 16 2a 3b b1 0e 3a bd
       -0.05074579 -0.019153465 0.002595359 -0.045424167
000300 17 b3 10 bd 8a c7 93 bd 32 e2 92 3d 3d da bb 3d
       -0.035327043 -0.072157934 0.071720496 0.09172485
000310 fe 55 02 bd e5 42 9b bc ad e7 9e bd d3 da ff bc
       -0.03182029 -0.018952796 -0.077590324 -0.031232273
000320 3c 13 aa 3d 46 32 a8 bc 47 13 20 3d 8a d7 ae 3c
       0.0830445 -0.020531785 0.039080884 0.021343011
000330 88 82 3a 3d d2 a1 2c bd 86 77 5f 3d d4 14 7f bd
       0.04553464 -0.04214651 0.054557346 -0.062275723
000340 f7 0b d3 3d 49 db 63 bc df 05 93 3c e1 1e b9 3a
       0.103050165 -0.013907262 0.017947135 0.0014123583
000350 6d 53 2a bd d5 2e 8a bd b9 ef cf bc 50 be 12 bc
       -0.041583467 -0.06747214 -0.025382863 -0.008956507
000360 5e e1 78 bc 07 a7 b0 3c a2 93 85 3d ac 6d f1 bc
       -0.0151904505 0.02156402 0.06522299 -0.029471241
000370 bd 61 b5 3d e1 a1 f8 bb f3 af 91 bd c4 52 83 3d
       0.08856533 -0.007587657 -0.07113638 0.06412271
000380 80 76 64 3d 6b c3 8a 3d b5 59 26 3d 5a 74 f2 bc
       0.055777073 0.06775554 0.040612895 -0.029596496
000390 d4 f2 c7 3c ac 97 a7 3d 60 4e 94 3c af 6e a7 bd
       0.024407782 0.08183226 0.018103778 -0.08175408
0003a0 a6 d4 32 bc a3 19 3c bd b8 95 bf bd 2e d0 9d bd
       -0.010914957 -0.045922887 -0.093547285 -0.07705723
0003b0 0f 20 4a bc 8b b5 a7 bc 73 72 55 3d 1a d1 51 3d
       -0.012336745 -0.020472309 0.0521111 0.051224805
0003c0 07 8d 73 3d 4e d0 89 3d 39 28 a0 bd 03 60 b9 bc
       0.059460666 0.06729184 -0.07820172 -0.02262879
0003d0 46 d9 68 3d de 71 2d bd 84 e5 36 bd 7f 15 90 bd
       0.056847833 -0.04234492 -0.044652477 -0.0703535
0003e0 de 25 cb bd 9c 3d 87 3d 49 81 9a bc df 48 62 3d
       -0.09919332 0.06603548 -0.018860476 0.055245277
0003f0 92 2b 99 3d 82 30 92 3d cd c3 3f 3d 9b be 0d bd
       0.074790135 0.071381584 0.04681759 -0.034605604

post_refine.3.weight f4 [34, 1024]
000000 cb 59 bc bc 99 ee b1 3b f4 44 1e bd 44 89 e8 bc
       -0.022992035 0.0054300544 -0.038639978 -0.028385766
000010 db 53 18 bd de c4 c7 3c 3f a8 5b 3c 36 26 ba b8
       -0.037189346 0.024385866 0.013406812 -8.8762885e-05
000020 59 a1 84 bc f8 95 0a bc 80 2f 85 bc 93 41 d0 bb
       -0.016190218 -0.008458607 -0.016258001 -0.0063554733
000030 17 0f 8b 3a 27 4e 3a bd a6 74 ef bc 6e e7 97 bc
       0.0010609356 -0.045484688 -0.029230427 -0.018542971
000040 f4 2e 8e 3b 6f 2c 49 3c c9 c2 06 3b 0f f3 01 bd
       0.0043390933 0.01227866 0.0020562878 -0.03172594
000050 18 43 0a bd 00 c1 3d 3c 08 34 35 bd f6 4a c7 3b
       -0.03375539 0.011581659 -0.044239074 0.006081934
000060 28 60 42 3c 8e fc 9e 3b a1 70 0e bd ea c1 28 bd
       0.011863746 0.004851884 -0.03477538 -0.041200556
000070 22 8d 49 bd d8 57 db bc 68 04 1d 3c df ee f4 ba
       -0.04920686 -0.026775286 0.00958357 -0.0018686912
000080 15 fc 0b bd b1 f1 7a bc da ee c8 bc cb c8 17 bd
       -0.03417595 -0.015316413 -0.024527956 -0.037056725
000090 b0 cb 0c 3c e6 9b 85 bb 69 6a 01 bd e0 6d 08 bd
       0.008593485 -0.0040774224 -0.03159562 -0.03330791
0000a0 85 07 85 3c c7 ec f4 bc e5 c7 28 bd 37 e7 fc 3b
       0.016238937 -0.02989806 -0.04120626 0.0077179926
0000b0 9c 04 fd 3b 51 1f 29 bd 8d d5 af 3c 27 41 a1 38
       0.0077214967 -0.04128963 0.021464134 7.689214e-05
0000c0 ef 13 35 bd 0a 39 12 bd a2 0b ef bc 30 ff 17 bd
       -0.044208463 -0.035698928 -0.029180352 -0.0371086
0000d0 5e 52 9a 3b 51 79 cf ba c3 d4 44 bd 5a 9a 00 3c
       0.004709526 -0.0015829002 -0.048054468 0.0078493
0000e0 9e ea 8a 3a 2d 7f 18 3b 58 a4 c5 3a 0b 96 7b 3c
       0.0010598486 0.0023269162 0.0015078885 0.015355597
0000f0 10 07 1d bd 0f fa b8 bc 2b 8e be bc 17 d0 55 bd
       -0.038336813 -0.022580175 -0.02326115 -0.052200403
000100 2f cb b6 bc df 58 91 bc 6d 62 31 bd e0 e6 d3 bc
       -0.022313682 -0.017742572 -0.043306757 -0.025866926
000110 64 9f 5a bd 8d 94 d5 bc 46 13 0e bd c5 c0 21 3c
       -0.053374663 -0.026071811 -0.03468635 0.00987262
000120 d1 11 02 3c 65 18 01 bb 9d 88 9b bb 52 23 03 bb
       0.007938818 -0.0019698378 -0.00474651 -0.0020010066
000130 a8 e0 2b bd ff c1 3a 3c 95 29 b4 39 fb 01 38 bd
       -0.041962296 0.011398791 0.00034363256 -0.044923764
000140 c6 9c f0 bc 7e 35 21 bd d2 ff 54 bc a1 56 04 bc
       -0.02937163 -0.039357655 -0.013000445 -0.008077295
000150 98 b2 4c bc 30 cc 31 bd 21 9e ce bc 53 05 f8 bc
       -0.012493752 -0.04340762 -0.025221886 -0.030275976
000160 6e e4 2e bc 9d f3 c2 bc e4 b5 22 bd 49 db d6 bc
       -0.010674579 -0.023797804 -0.039724246 -0.02622761
000170 09 62 9c bc 08 b7 60 ba aa 9e 20 3a 9c 1b b6 bb
       -0.019089716 -0.00085721957 0.00061271584 -0.0055574905
000180 fa e2 a2 ba e6 95 62 bb 00 7f 01 bd 61 0c 4c bc
       -0.0012427263 -0.003457421 -0.031615257 -0.012454123
000190 5f 87 c9 bb 33 cd 50 bd e1 1e 0a bd fe 3b 5d bd
       -0.0061501707 -0.050976943 -0.033720855 -0.05401229
0001a0 25 a3 5b 3c 85 e6 f2 3b d1 74 f9 bc f9 05 87 b9
       0.013405596 0.007412734 -0.03045121 -0.00025753657
0001b0 e6 5c b7 bc cf f9 19 bd c9 40 0d bd 75 38 7f bc
       -0.022383165 -0.03759175 -0.034485612 -0.015577425
0001c0 19 c4 f5 3b 0e 79 0d bd c5 d7 0a 3c 6b 54 22 bc
       0.0075001833 -0.034539275 0.008474295 -0.009907822
0001d0 99 cc e4 bc 2a 38 e0 bc 59 c5 12 3c b7 87 ba bc
       -0.027929591 -0.027370531 0.008958184 -0.022769792
0001e0 0e e0 15 bd 3e 37 1c bc 29 7c d7 bc 74 d4 76 3b
       -0.03659063 -0.009534655 -0.026304321 0.0037663253
0001f0 3f df 34 bd 89 d4 17 bd 25 b1 c2 bc 1a 40 af bb
       -0.044158217 -0.037067924 -0.02376611 -0.0053482177
000200 fc 53 00 bd f4 96 0c bd d2 4c 43 bc 14 69 eb bc
       -0.031330094 -0.034323648 -0.011920171 -0.028736629
000210 26 ae b6 bc 1b 61 d2 bc 63 72 34 bd e9 89 ef bc
       -0.022299837 -0.02568107 -0.0440544 -0.029240565
000220 6b 7b ed bc 1a f9 1e 3c 2c ac 1e 3c f8 7d d7 bc
       -0.028989514 0.009702945 0.009684604 -0.026305184
000230 79 e9 8a bb 06 12 18 bd 81 1e e3 3b 52 89 65 3c
       -0.004239258 -0.037126563 0.0069311266 0.0140097905
000240 7d 3c 8e bc 8a b5 bf bc ce 2a 57 bc 0c f1 9b bc
       -0.017362827 -0.023401994 -0.013132764 -0.019035839
000250 ff f9 ff bc 0c 87 46 bb c0 a4 12 bd 9d c5 56 bd
       -0.031247137 -0.0030292897 -0.03580165 -0.052434552
000260 39 4d 27 bd 9e 77 32 bd d8 1c 4d bc a0 4e db bc
       -0.04084513 -0.043571107 -0.012519084 -0.02677089
000270 72 71 12 bd b9 6c a3 bc a9 d8 a9 bc 4f 2e 1b bd
       -0.03575272 -0.019949304 -0.020733194 -0.03788596
000280 2b cf 9a bb dd 06 96 bc da b5 1f bd 56 17 f1 ba
       -0.0047244034 -0.01831382 -0.038991787 -0.0018393795
000290 89 2f 52 bd 01 41 24 bc 8f 20 a4 3b a2 dc b7 3b
       -0.051314864 -0.010025264 0.005008764 0.0056110183
0002a0 bf 44 e1 bc 63 8a 5a 3c 70 4d 5e bc 38 33 45 bd
       -0.027498601 0.013338658 -0.013568267 -0.04814455
0002b0 e8 18 27 bd e4 7d ec bc 60 b2 b0 bc 9b cc 39 bd
       -0.040795237 -0.028868623 -0.02156943 -0.045361143
0002c0 d5 d7 d8 3b 83 ef e4 bc 4a e4 9a bc 69 ff 96 bc
       0.006617526 -0.02794624 -0.018907685 -0.018432336
0002d0 65 fd f8 bc 16 f0 19 bd 65 38 f9 bc d3 e2 be bc
       -0.030394265 -0.03758248 -0.030422399 -0.023301518
0002e0 a3 5e 27 bd ae bd 28 bd 30 9e e7 bc 3a 3c ca 3b
       -0.040861737 -0.041196518 -0.028273672 0.0061717303
0002f0 73 5f 62 3c 64 62 16 bc 2c a5 03 bd ae fc 82 bc
       0.013816702 -0.009178732 -0.032139942 -0.015989628
000300 b3 94 36 bc a9 d6 92 3c 1d fd 95 bc d8 81 a1 3b
       -0.011143851 0.017924624 -0.01830917 0.0049288087
000310 b0 b6 53 bd cc 0e c5 bb 50 dc 01 bd 57 ef 47 3c
       -0.051687896 -0.006013727 -0.031704247 0.012203059
000320 ef 4e 02 bd 64 a2 3f bc 6f 76 e7 bc 10 e8 d1 bc
       -0.03181356 -0.011696432 -0.028254716 -0.025623351
000330 18 41 32 bd 77 56 04 bd c8 af 54 bc ab 50 13 3b
       -0.04351911 -0.03230902 -0.012981363 0.0022478502
000340 95 8d ba bc ce ce 8d bc 12 ab ac 3c 47 94 10 3c
       -0.02277259 -0.017310526 0.021077666 0.008824415
000350 ec f7 b3 3c 20 80 52 bc a7 59 5e bc 70 48 bd bc
       0.021968804 -0.01284793 -0.0135711795 -0.02310583
000360 42 f8 00 bc 1d 4c 0b bd da 32 88 bc 22 6b 83 3c
       -0.007871689 -0.034008134 -0.01662581 0.016042296
000370 65 0d ba bc 6a 2d b5 3b 3c 68 7a bc cf c0 8b bb
       -0.022711465 0.0055290954 -0.0152836405 -0.004264928
000380 d2 ba 44 bd 93 e9 1e bd 71 41 80 bc 75 6b 97 bc
       -0.04802973 -0.038796972 -0.015656205 -0.018483857
000390 4d 95 02 bd c3 ae 29 bd 94 4c 8c bc 81 94 55 bd
       -0.031880666 -0.04142643 -0.017126359 -0.052143577
0003a0 99 0a 11 bd 79 ed 2c bb 01 8d 1a bc 28 c1 9f bc
       -0.035410497 -0.0026386662 -0.009433032 -0.019501284
0003b0 0c ea 59 bd ab 58 c4 39 f0 05 76 bc cf 26 bc bb
       -0.05320172 0.00037450096 -0.015016064 -0.005741931
0003c0 77 e8 3a bd db 8c 2d bd 7b d5 49 bd 0c 88 f0 bb
       -0.045631852 -0.04237066 -0.049275856 -0.007340437
0003d0 71 57 09 bd a3 df e7 bc 58 a1 60 bc cf 4b d9 bc
       -0.033530656 -0.02830488 -0.013710342 -0.026525406
0003e0 d9 12 ab bc 59 ad 9a bc 0a d8 c1 bc ea 28 91 bc
       -0.02088301 -0.018881487 -0.023662586 -0.017719705
0003f0 40 62 a0 bc d1 1a a6 bc 56 f2 bf 3b 00 b5 a2 3a
       -0.0195781 -0.020276459 0.005857746 0.0012413561

post_refine.3.bias f4 [34]
000000 81 aa 3d bb da a7 3c 3a f6 e3 ab 3b 26 03 86 3b
       -0.002894074 0.00071966427 0.005245681 0.004089731
000010 49 3a 91 3c 30 78 aa bc 3e 64 4b bc e8 1f 2f bd
       0.017727988 -0.020809263 -0.012414036 -0.042755038
000020 f9 ac 0d 3c 1d a2 4d 3d 35 99 0d 3c 1f 65 03 bc
       0.008647197 0.05020343 0.008642484 -0.008019715
000030 8e 71 1c bd 29 17 93 bc 08 37 84 bc 26 e3 b2 3c
       -0.03819423 -0.01795538 -0.016139522 0.021836828
000040 e9 7c ac bc 7e 79 c8 bb 61 72 96 bc b1 a1 ba bc
       -0.021055656 -0.0061179986 -0.018365087 -0.022782179
000050 13 96 62 bc fb c8 19 bd 78 22 d1 bc 49 3a 00 3d
       -0.013829726 -0.037545186 -0.025529131 0.031305585
000060 b6 35 07 bd ce 85 07 bc f5 f7 8f 39 3b be 1e bc
       -0.033010207 -0.008271648 0.00027459828 -0.009688909
000070 1d c9 fb 3b 00 06 1d bb 9e 85 eb bc 06 fe 8d 3a
       0.0076838867 -0.0023959875 -0.028750237 0.0010833151
000080 18 62 57 bc e0 3b da bb
       -0.013145946 -0.0066599697
